MIND_TRACK/Mind_Track2/AICode/mindtrack_model.tflite (tflite, 16760 bytes, 4 tensors)

arith.constant f4 [50, 64]
000000 10 16 e6 bd bd f4 57 3e f0 ed 21 bd 22 b6 c4 bd
       -0.11234677 0.21089454 -0.039533556 -0.096050516
000010 fd 42 1b 3e 80 1d f7 bc a6 72 e9 bd 50 10 a8 bd
       0.15162273 -0.030165434 -0.113988206 -0.08206236
000020 c1 c0 54 3e dc eb 7b bd 3b 48 21 3d ed 9a 46 be
       0.20776655 -0.06150423 0.039375525 -0.19395037
000030 0c c9 00 bd 3a 55 68 3e a4 57 41 3e e5 11 68 3e
       -0.031441733 0.22688761 0.18881088 0.22663076
000040 61 94 17 be a0 44 7f bc 23 b6 57 3e 77 00 c5 3d
       -0.14802696 -0.015580326 0.21065573 0.09619229
000050 ad 52 89 be ab a6 63 3e de 84 24 3c 19 07 af 3d
       -0.2682089 0.22231548 0.010041444 0.08546276
000060 22 28 3c 3d c2 7b 66 3a 7b 0e 29 be 0f 4f cf 3d
       0.04593671 0.0008792245 -0.1650943 0.10122501
000070 fa ca a1 3d d1 e1 06 3e f0 27 1e be e8 21 ab bc
       0.07900043 0.1317208 -0.15444922 -0.020890191
000080 06 5c a7 bc 6a b8 96 3c 64 ce 17 bd 24 76 aa bd
       -0.020429622 0.018398482 -0.037062064 -0.08323315
000090 dd d8 80 3d 6e ae ec 3d 38 f1 e1 3d 6b 73 33 be
       0.062913634 0.11556707 0.11032337 -0.17524497
0000a0 d3 7f 99 bd 1c d1 0f be 6d 7f 0f be 74 13 5e 3d
       -0.07495084 -0.14044613 -0.14013453 0.05421777
0000b0 d4 ae 33 3d 2c 89 8b 3d 34 65 04 bc 06 f6 4d be
       0.0438679 0.06813273 -0.008080769 -0.20113382
0000c0 60 49 cd ba 8f 7b 64 3e 90 6d 95 3d 8f c5 06 3e
       -0.0015662126 0.22312759 0.07296288 0.131613
0000d0 f9 53 4d 3e cc a2 cd 3d 76 98 da 3d c0 b2 7f 3c
       0.20051564 0.10040817 0.10673611 0.015606582
0000e0 10 b9 32 bd 8e 01 27 be 25 c6 55 3e 67 78 32 3e
       -0.04363352 -0.16309187 0.20876367 0.17428742
0000f0 a6 56 df 3d c8 94 91 3a d6 da bb 3d b1 c2 2a 3e
       0.10905199 0.0011106962 0.09172599 0.16675831
000100 58 4e 2e 3e 84 63 de bd 36 c0 1c be 8a b8 be bd
       0.17022073 -0.10858825 -0.15307698 -0.09312542
000110 b1 2f 1d 3e c7 29 35 3e 10 11 b1 bc e3 e3 55 be
       0.15350224 0.17691718 -0.021614581 -0.20887713
000120 2f 4f 3e 3e c0 ce d2 bd 34 d4 d4 3c 72 41 05 3e
       0.18584894 -0.10293341 0.025980093 0.13013247
000130 35 10 69 3e 0f df 2b be 4c fa 20 3e bd db df 3d
       0.22760089 -0.16784309 0.1572048 0.109305836
000140 4c 5c 7f be ac 10 0b bd b1 b7 3e 3e 9c 5f da 3d
       -0.24937552 -0.033951446 0.1862476 0.10662767
000150 6d 3d 81 be f8 54 bc 3c 19 02 40 3e 79 6e 08 3e
       -0.25242177 0.022989735 0.187508 0.13323392
000160 f6 1f 37 bd 9c af 14 be a4 aa 4b be 64 39 69 3e
       -0.044708215 -0.14520115 -0.19889313 0.22775799
000170 11 b4 64 3e b3 8c 0d 3e a8 40 27 bd 62 4b 00 be
       0.22334315 0.13823204 -0.040833145 -0.12528756
000180 b6 a1 17 be 76 6e 07 3e 6c f7 68 3d 64 df 0f be
       -0.14807782 0.13225731 0.056876585 -0.1405006
000190 e8 9d a1 3d cf 09 b2 3d c7 ed 4e be 35 c1 56 3d
       0.07891446 0.08693277 -0.20207892 0.05243035
0001a0 f9 ee c7 3d aa e4 e2 3d e1 f5 0c 3e 78 50 1a be
       0.09762377 0.110787705 0.1376567 -0.15069759
0001b0 1a 87 1c be eb 6b b1 3d 64 44 28 3e 72 44 3a be
       -0.15285912 0.08663162 0.16432339 -0.18190172
0001c0 6b dc 9a 3d e9 41 23 be a1 76 12 3d 76 2d 13 be
       0.07561573 -0.15943111 0.035757665 -0.1437281
0001d0 d0 62 19 be 45 f6 88 bc 1f 35 26 3e ba 92 ad bd
       -0.149791 -0.016718993 0.16231202 -0.084752515
0001e0 83 18 f6 bd 44 e0 4c 3d 99 7d 55 3e ac 7c b6 bd
       -0.12016394 0.050018564 0.20848693 -0.08910498
0001f0 78 d6 dc bc 2e 01 32 be c0 c3 47 bc bc 33 39 3d
       -0.026957735 -0.17383263 -0.0121926665 0.045215353
000200 80 ea 42 bd 1a ee f9 3d 18 b5 50 bd 95 ad ef bd
       -0.047586918 0.122036174 -0.050953954 -0.1170303
000210 d6 70 83 bd a6 de 09 be e4 39 84 be 34 a3 34 3d
       -0.06418006 -0.1346384 -0.25825417 0.044100955
000220 98 f2 c5 3c 3c 18 1b bd 1d e9 5e bd 35 22 5f 3d
       0.02416353 -0.03786491 -0.054421533 0.05447598
000230 e2 b5 32 be d2 f5 24 3e b8 bf 1c 3c 48 99 3a be
       -0.17452195 0.16109398 0.009567194 -0.18222535
000240 d0 06 36 3e 04 34 70 bd c2 81 14 3e 76 42 03 be
       0.17776036 -0.058643356 0.14502624 -0.12818322
000250 d9 5f 1b 3c 8b 62 24 3e f4 99 64 3c c5 74 e3 bc
       0.009483301 0.16053216 0.013952721 -0.027765641
000260 b8 61 a7 be 40 ac 47 be 65 4a 0d 3d f0 9b 58 3e
       -0.3269174 -0.19499302 0.034494776 0.21153235
000270 b0 65 9c bd dd 6f ed 3c c0 56 82 3d 33 82 2c 3e
       -0.07636583 0.028984005 0.063642025 0.16846542
000280 de bd a9 bd f8 0e 34 be d3 09 0d 3e 70 40 c4 bd
       -0.082881674 -0.17583835 0.13773279 -0.09582603
000290 71 20 e0 bd 1c 58 5c be 18 1d 80 bd c5 84 30 3e
       -0.10943688 -0.21517986 -0.06255549 0.17238148
0002a0 84 7a cd 3d ac b2 d5 3d 8f c0 3f 3e a9 bd 40 3e
       0.100331336 0.104344696 0.18725799 0.1882235
0002b0 dc 63 6a 3d 42 26 83 3e c9 41 e3 bd 8a 06 15 be
       0.05722414 0.25615126 -0.11096532 -0.14553276
0002c0 c2 06 1e 3e cb e3 62 3e ab cc d0 bd 83 d8 09 be
       0.15432265 0.22157209 -0.10195287 -0.13461499
0002d0 5e 42 c3 3d a9 85 b5 bd 58 c1 f4 bc a2 7c 97 bd
       0.09534143 -0.08863384 -0.02987735 -0.07396819
0002e0 47 4e 3e 3e 90 09 c6 bc 88 06 f2 3c 9b 55 04 3e
       0.18584548 -0.024174482 0.02954413 0.12923281
0002f0 4c f8 2d bd 40 68 6c 3d 6a c8 15 be 10 9c 57 bc
       -0.042473122 0.057716608 -0.14627233 -0.013159767
000300 e0 9c 13 be 46 de 1f 3e 8a ba 3b be f5 0a 08 3e
       -0.14415312 0.15612134 -0.18332878 0.1328543
000310 09 b9 36 3e 2c 76 80 bd f8 3d 8e 3a 1b ba fb bd
       0.17844023 -0.062725395 0.0010852208 -0.12291356
000320 b4 c6 5f 3d 3a 76 fa bd 28 5c 9c bc 55 78 de bd
       0.054632857 -0.12229581 -0.019086912 -0.10862795
000330 3f 75 35 3e a0 d7 9d 3d b4 d6 cf 3c 29 36 18 bd
       0.17720507 0.07707143 0.025370933 -0.037161026
000340 9b ec fb bd 7b 5e d7 bd 1f d7 00 3e 7e 66 28 be
       -0.12300988 -0.105160676 0.12582062 -0.16445348
000350 29 e6 3b 3e 2b ac 50 3e 38 7a df bd 90 d1 90 be
       0.18349518 0.20378177 -0.10911983 -0.28284883
000360 ee 4d 73 3e 3e 28 81 bc 8e 76 ea bd 7b 14 fa bd
       0.23760197 -0.01576626 -0.11448394 -0.122109376
000370 30 7e 65 bc 27 41 ce bc 33 d5 81 bc 0c a3 2f be
       -0.014007136 -0.025177551 -0.015848732 -0.17152041
000380 c7 65 92 bd c9 9f 9e 3d 01 17 27 3e 6a 6c ae 3d
       -0.07148319 0.0774532 0.16317369 0.08516772
000390 f8 11 39 bd d4 65 4a 3e b9 f6 16 3e 29 61 59 be
       -0.045183152 0.19765407 0.14742555 -0.2122847
0003a0 62 c1 08 be 00 e2 75 3d b1 87 68 bd 99 c0 33 3e
       -0.1335502 0.060029984 -0.05677003 0.17553939
0003b0 38 7e a1 bc 44 d6 6e bd 13 27 13 3e d9 ba 2f bd
       -0.019713506 -0.05830981 0.14370374 -0.0429028
0003c0 26 ea 28 3c d1 68 59 3e 91 fd 10 be ff de 2b 3e
       0.010309732 0.2123139 -0.14159228 0.16784285
0003d0 ef 56 2f 3e 61 37 92 bd a0 4d 0e 3c e0 bf 51 3c
       0.17123006 -0.07139469 0.008685499 0.012802094
0003e0 ed a3 4d be bc 4d 88 bd 83 95 3c 3e e8 88 1d be
       -0.20082064 -0.06655452 0.18416409 -0.15384257
0003f0 38 cb 0c bd 79 39 c2 bc 23 7b 35 3e d9 36 17 3e
       -0.034373492 -0.023709046 0.17722754 0.14767016

sequential_1/dense_1_2/Add/ReadVariableOp f4 [50]
000000 45 34 9a bb 00 1e f5 bb 1a bb 26 bd c9 a9 b5 3d
       -0.004705938 -0.007480383 -0.040705778 0.088702746
000010 08 7f 8a 3d c6 3f 9e 3d df 67 ae 3d ba bb cd bc
       0.067625105 0.077270076 0.085159056 -0.025113929
000020 a4 52 e8 3d 19 10 cc 3d 0e c6 db 3d cb ad a6 3d
       0.113438874 0.09964008 0.10731135 0.08138617
000030 76 9b 0a 3e 5d c5 b4 bd a3 75 00 3e f1 be f4 3d
       0.13535866 -0.088267066 0.12544875 0.11950482
000040 4c 9e 10 3d 37 64 a1 bd 3a e8 e6 3d c5 85 8f bd
       0.035307214 -0.078804426 0.112747625 -0.070079364
000050 60 ec 9a 3d 85 8c a2 3d 48 9b c3 3d 84 c3 14 3e
       0.07564616 0.07936958 0.09551102 0.14527708
000060 8d c4 93 3d d0 68 bb bd 27 93 a0 bd c4 48 db 3d
       0.072152235 -0.09150851 -0.07840567 0.10707238
000070 39 22 73 3d 7a f5 3b 3d c8 fa 93 bd c0 0e 36 bd
       0.05935881 0.0458884 -0.07225567 -0.04444766
000080 2a 1a ad bd 07 2f a7 3c bc 7f 18 3d 9b f8 cb bc
       -0.08452256 0.020408167 0.037231192 -0.024898818
000090 b2 ea 87 bd 1a f6 b8 bd 07 91 99 bd 1e cb a7 bd
       -0.066365615 -0.09031315 -0.07498365 -0.081930384
0000a0 3f f5 fd bd 45 0b b6 bd 59 a5 eb bd a3 b2 bb bd
       -0.124002926 -0.08888868 -0.11506147 -0.091649316
0000b0 73 86 a3 bd 41 bd 96 bd 04 56 e8 bd 38 da cd bd
       -0.079846285 -0.07360316 -0.11344531 -0.100513875
0000c0 6b 20 b6 bd 10 ca ed bd
       -0.08892902 -0.11610806

sequential_1/dense_1/Add/ReadVariableOp f4 [64]
000000 33 91 09 be fb 33 af bc 00 00 00 00 00 00 00 00
       -0.13434295 -0.02138709 0.0 0.0
000010 00 00 00 00 00 00 00 00 d5 e6 24 3d 00 00 00 00
       0.0 0.0 0.0402592 0.0
000020 00 00 00 00 00 00 00 00 1a 8c 09 3d e6 d7 26 be
       0.0 0.0 0.033580877 -0.16293296
000030 00 00 00 00 56 d5 ba bd 36 a0 b2 bd 40 e9 c5 3b
       0.0 -0.09122722 -0.08721964 0.0060397685
000040 8c 7d 24 3b 00 00 00 00 70 02 61 bd 1e fe 84 3c
       0.0025099246 0.0 -0.054933965 0.016234454
000050 9d 5a 74 3e 00 00 00 00 ef 0c fc bd 46 c2 3c 3e
       0.23862691 0.0 -0.123071544 0.18433484
000060 17 5a c4 3d c8 cf 2d bd 08 ec 0d be a6 1f 0b 3e
       0.09587496 -0.042434484 -0.1385957 0.13586292
000070 00 00 00 00 4c 4c fc bc ab ee b1 bd 00 00 00 00
       0.0 -0.0307981 -0.086881004 0.0
000080 91 0e 88 3c 25 00 e5 bd 00 00 00 00 00 00 00 00
       0.016608508 -0.11181668 0.0 0.0
000090 bd 5f 1a 3d 49 34 17 3c f6 7f 20 3c a9 b1 84 3d
       0.03768896 0.009228774 0.009796133 0.064791985
0000a0 ac 44 cf 3d 7f cb 9b bc bb 0f d9 bc 00 00 00 00
       0.1012052 -0.019017933 -0.026496759 0.0
0000b0 00 00 00 00 0b a7 d9 3d f5 45 af 3d 8b 52 f2 3b
       0.0 0.10627564 0.08558265 0.007395094
0000c0 ea 97 1b be 00 00 00 00 34 f6 50 bd 00 00 00 00
       -0.1519467 0.0 -0.051016048 0.0
0000d0 00 00 00 00 51 ba 33 3d 00 00 00 00 00 00 00 00
       0.0 0.043878857 0.0 0.0
0000e0 00 00 00 00 00 00 00 00 00 00 00 00 00 00 00 00
       0.0 0.0 0.0 0.0
0000f0 00 00 00 00 6f 40 9d 3c 00 00 00 00 00 00 00 00
       0.0 0.019195763 0.0 0.0

sequential_1/dense_1/MatMul f4 [64, 7]
000000 30 59 7c be ca 41 bd bd 4b f8 00 3e 3f fc 53 be
       -0.24643397 -0.09241064 0.12594716 -0.20701693
000010 d1 fe ac be 7c 35 6d bc 22 cb 0c 3e 51 03 1d 3e
       -0.3378816 -0.014478084 0.13749364 0.15333296
000020 63 d1 8c bd 9c 25 20 3e cf 5a c2 3c 85 2b e9 bd
       -0.06875875 0.15639347 0.023724942 -0.11385254
000030 61 a3 46 3e 8a b4 1e 3b 90 67 dd bc 94 09 1e 3e
       0.19398262 0.0024216496 -0.027026922 0.15433341
000040 5e db 6e 3e a2 5c 3c 3e 20 fc 69 bc 98 b9 46 be
       0.2332587 0.18394712 -0.014281303 -0.19406736
000050 ac 5b 32 bd 4c c1 1e 3e fc 0e ba 3d c8 bf 16 3d
       -0.043544456 0.15503424 0.09084889 0.03680399
000060 10 a1 8d 3d 82 12 a3 bd 80 e6 8c be 9d dc 8f be
       0.06915486 -0.079625145 -0.27519608 -0.28098002
000070 00 4f 31 bb 59 24 8b 3e 69 c0 2a be 84 32 4d be
       -0.0027055144 0.2717617 -0.16674961 -0.20038801
000080 80 30 e3 3d c4 83 57 be 78 c7 24 be 86 e1 3c 3e
       0.11093235 -0.21046358 -0.16091716 0.18445405
000090 5c 66 e0 3d 2a a4 4a 3e f0 5d 2c bd b2 71 ad bd
       0.109570235 0.19789186 -0.042081773 -0.08468951
0000a0 0a 7a 6a be cb 51 90 be fc 57 44 3e 01 c3 16 3e
       -0.22898117 -0.28187403 0.19174188 0.14722826
0000b0 81 51 43 be 78 27 4a be 71 55 4f 3e 69 2a bf 3d
       -0.1907406 -0.19741619 0.20247437 0.09334261
0000c0 ef cd 52 3d e0 1f f2 3d 18 33 f6 3d 95 e7 73 be
       0.051465925 0.11822486 0.12021464 -0.2381881
0000d0 a4 9e 30 3e 00 77 7f 3d 82 3f 84 bd 60 a9 a8 bd
       0.17248017 0.062369347 -0.06457426 -0.08235431
0000e0 80 a3 14 bb d2 15 82 be 86 e6 af bd 88 3a 5e 3d
       -0.0022680461 -0.25407273 -0.08588891 0.05425504
0000f0 3c e6 97 3d 48 15 1c bd 00 85 a1 bc a6 db 0e be
       0.074169606 -0.038106233 -0.01971674 -0.13950977
000100 ca a9 67 be a0 7b 13 3c a6 83 2d 3e 10 24 cf 3c
       -0.22623363 0.009001642 0.16944751 0.02528575
000110 0c 97 86 be 6d e0 89 be b3 8d f5 bd ac 57 9b 3d
       -0.26287115 -0.26929036 -0.119899176 0.075850815
000120 bd f2 91 3e fd 19 8b be b3 b1 94 3e 0f 7d 5c 3e
       0.28505507 -0.27168265 0.29041824 0.21532081
000130 59 a9 14 3e 3e f5 d6 3d 90 2e b0 3d f2 b3 88 be
       0.14517726 0.10495995 0.08602631 -0.26699787
000140 f1 8f f7 3c ea b7 43 3d 9b c7 9d 3d 27 81 3f 3b
       0.030220004 0.047782816 0.07704087 0.0029221268
000150 fa af 23 be dc 13 43 3e ca 36 7f 3e 60 cc a1 bc
       -0.15985098 0.19050545 0.24923244 -0.019750774
000160 50 66 82 bd 18 92 25 bd 9b 22 8a be 00 7a 4d bd
       -0.06367171 -0.04042253 -0.26979527 -0.050165176
000170 21 7c 91 bd b5 df 41 3e ac 2d ad bc 1d f8 99 3d
       -0.07103754 0.18932994 -0.021139942 0.07518027
000180 88 90 91 3d de 7b 0a bd f1 5c 7b be fd e6 70 3e
       0.07107645 -0.033809535 -0.24547173 0.23525615
000190 7b d6 29 be ac db 48 3e 76 7a 43 be 32 c7 63 3e
       -0.16585724 0.19615048 -0.19089684 0.22243956
0001a0 2d 5f 39 be 28 de 4e 3e 88 ba 3f bd ba 9b 5e bd
       -0.18102713 0.20201933 -0.04680875 -0.05434773
0001b0 95 97 15 bd 8e 41 ef bd 0f ff 0b 3e 61 be d6 bd
       -0.036521513 -0.116824254 0.13671516 -0.10485531
0001c0 58 06 41 be 4c d9 33 be 2d 45 ea bd 6a f5 a8 3d
       -0.18850076 -0.17563361 -0.114389755 0.08249934
0001d0 46 b7 47 bc 09 78 7a 3e f6 cc 9b 3d 90 fd 37 3d
       -0.012189692 0.24459852 0.076074526 0.04491955
0001e0 08 f3 57 3d 00 18 d4 3d 6e 81 53 be c0 36 c7 3b
       0.052722007 0.1035614 -0.20654842 0.0060795248
0001f0 48 65 d9 bd b8 da 69 3d 16 25 d4 bd 49 55 9e be
       -0.10615021 0.057093352 -0.10358636 -0.30924442
000200 88 c2 af 3c 16 61 1b bd 90 fc 55 bd f1 b8 19 3e
       0.021455064 -0.037934385 -0.052242815 0.15011956
000210 24 4f 5b 3e 15 68 a3 be ee b4 35 be ae f5 35 be
       0.21416909 -0.31915346 -0.177448 -0.177695
000220 e4 db 3e 3e c8 ee 8a be c0 35 fa 3c d2 0e ed 3d
       0.18638569 -0.271353 0.030543208 0.115750924
000230 c0 1a 86 3e b6 58 8f bd 04 f7 59 3e 33 a6 5d bd
       0.26192284 -0.06999342 0.21285635 -0.054113578
000240 a1 40 e1 3e 22 05 43 be 83 0d 9d 3e ea e1 8c be
       0.4399462 -0.19044927 0.3067437 -0.2751611
000250 0c 33 93 be 64 11 7f be 18 5a 03 3d d6 ff ce bd
       -0.28749883 -0.24908978 0.032068342 -0.101073906
000260 d7 23 24 be 0c f6 c2 bd eb 2c 7a bb b1 25 b1 be
       -0.16029297 -0.09519586 -0.0038173746 -0.3459907
000270 11 b2 84 3d 49 28 06 3c 1f 69 80 be 1e fc 9d bc
       0.06479276 0.008188316 -0.250802 -0.019285258
000280 95 7a 6d 3e 84 81 9b 3e ed f8 b8 3e 4c 80 de 3c
       0.23191293 0.3037225 0.36127415 0.027160786
000290 38 be 19 3e 50 69 cc 3e 0b 9b e8 3d 3c 6b a6 be
       0.15013969 0.39924097 0.11357697 -0.32503688
0002a0 33 8c c8 bd 6d 45 c8 3e ec d6 23 be c7 61 6f 3e
       -0.09792366 0.39115468 -0.15999955 0.23377143
0002b0 26 a8 a6 3e 47 9c 1b be be a9 a9 3e 72 4b 19 3d
       0.32550162 -0.15196334 0.33137316 0.037425466
0002c0 60 c2 31 3e 1d 4b 5d be e0 36 1c 3c 35 79 c1 bd
       0.17359304 -0.21610685 0.009534568 -0.094469465
0002d0 f3 1a ca bb eb 2e 83 be d2 23 72 bd a0 fc a5 3d
       -0.0061677634 -0.25621733 -0.059116192 0.08104825
0002e0 22 9a 76 bd 7c b4 8a be 5c 50 97 be 15 b5 85 3e
       -0.060205586 -0.27090824 -0.29553497 0.26114717
0002f0 49 ba c6 bd 4b 3d 04 3e 7d 32 91 bd eb a7 c9 bc
       -0.097035 0.12914006 -0.07089708 -0.024616202
000300 71 11 80 3e 7c f5 f9 3c 0e 7f 51 3e e1 4c 69 be
       0.25013307 0.030512564 0.20458624 -0.22783233
000310 a4 08 dd 3d 70 ad f5 3c 68 9c a5 bd 50 80 11 3e
       0.10792664 0.029989928 -0.08086473 0.14209104
000320 16 06 60 3e 20 f7 d6 bc 78 54 7f be 00 62 6a be
       0.21877322 -0.026240885 -0.24934566 -0.22888947
000330 be b3 2e 3e f0 6f 81 3e e2 20 5c 3e 62 1c 0a bd
       0.17060754 0.25280714 0.21496919 -0.033718474
000340 90 b6 8f be 98 79 17 3e 67 98 21 3d 0e da 0d be
       -0.28068972 0.14792478 0.039451983 -0.13852713
000350 97 f0 96 3d b9 52 90 be 31 81 8c 3e 51 69 c6 bb
       0.073701076 -0.28188112 0.27442315 -0.006055035
000360 35 1f 82 3e 84 41 69 be e4 71 65 be ad 49 05 be
       0.25414434 -0.22778898 -0.22406727 -0.13016386
000370 8e ff c9 bd f2 a9 98 bd 50 47 67 be f0 9e df bd
       -0.09863196 -0.074542895 -0.22585797 -0.10918987
000380 01 2a 02 be 82 e5 49 be 8f c6 cf 3d 32 11 57 3c
       -0.12711336 -0.19716457 0.10145294 0.013126658
000390 ce a1 28 3e 14 05 0c 3e c3 c2 95 3b 56 2f 99 3d
       0.16467974 0.13673812 0.0045703365 0.07479732
0003a0 f2 5f 42 bd 71 df f0 3d 3d fc 5c be d9 dd 9e 3d
       -0.04745478 0.11761368 -0.21580596 0.07757158
0003b0 a5 33 73 3e 6c 61 1a 3d a8 35 4b 3d 9c 0e 2a 3e
       0.2375017 0.037690565 0.049611717 0.16607136
0003c0 8c 03 34 3e 9c dc 43 3e 7f da 8d 3e 1e 38 17 be
       0.17579478 0.19127125 0.27705762 -0.14767501
0003d0 80 53 09 be a4 ee d9 3d 66 c9 8a be dc 01 d9 bd
       -0.13410759 0.1064122 -0.2710678 -0.10596058
0003e0 84 74 50 3e 2d 8c 8b be c0 7d 40 be c0 a2 8c bb
       0.20356947 -0.27255383 -0.1879797 -0.0042918622
0003f0 b6 4b 96 3c 0a 7a 2e be 05 59 15 3e 7e b1 c4 bd
       0.018346649 -0.17038742 0.1458474 -0.096041664
